…
Shape of y: torch.Size([64]) torch.int64
Using cuda device
NeuralNetwork(
  (flatten): Flatten(start_dim=1, end_dim=-1)
  (linear_relu_stack): Sequential(
    (0): Linear(in_features=784, out_features=512, bias=True)
    (1): ReLU()
    (2): Linear(in_features=512, out_features=512, bias=True)
    (3): ReLU()
    (4): Linear(in_features=512, out_features=10, bias=True)
  )
)
----------------------------------------------------------------
        Layer (type)               Output Shape         Param #
================================================================
           Flatten-1                  [-1, 784]               0
            Linear-2                  [-1, 512]         401,920
              ReLU-3                  [-1, 512]               0
            Linear-4                  [-1, 512]         262,656
              ReLU-5                  [-1, 512]               0
            Linear-6                   [-1, 10]           5,130
================================================================
Total params: 669,706
Trainable params: 669,706
Non-trainable params: 0
----------------------------------------------------------------
Input size (MB): 0.00
Forward/backward pass size (MB): 0.02
Params size (MB): 2.55
Estimated Total Size (MB): 2.58
----------------------------------------------------------------
wandb: logging graph, to disable use `wandb.watch(log_graph=False)`
…
